data.pth (torch, 5418 bytes, 6 tensors)

l1.weight f4 [8, 54]
00000000: 42af 0b3e 9010 793e 8aec b73e fd99 ce3e
00000010: 9d5b ca3e b942 56be cec6 d23e 4813 e63e
00000020: 842b bd3e 211e 853e 2579 4f3e 8d60 9bbe
00000030: a52d db3e 9034 c1be da89 bf3e bcf2 94be
00000040: 355d 483e 03af 52be 7925 633e fe54 a33e
00000050: b101 b03d 7b4e 123f aac1 983e b5bb 0f3e
00000060: 7fe6 873e 55a0 993e 94fa 2d3e 06b3 c63d
00000070: afb1 4f3d 3d45 d73c 34c6 61be 9361 80be
00000080: 9967 4b3e 565b ae3e bc78 213f 38af 2abe
00000090: 93f7 dd3d e00d a03e 3213 9c3e 6a34 eb3e
000000a0: 3a61 1bbe 9b00 383e 009e 3dbe f815 0c3f
000000b0: f6b7 1a3d 6930 413f 6d6e 9ebb e54a 803d
000000c0: 5c37 5a3e c04a 2a3e aa39 74be 3a1b 133e
000000d0: 5e96 c53e ea30 813e 425d 58be 7b78 623e
000000e0: e65b d3be 96ce 723e f398 983d b19c 123f
000000f0: 4f04 8dbe 99d6 f1be 33bb 00bf 1d31 fabe
00000100: 33a2 e63e d7bf 2c3f b950 763d 5ca1 103f
00000110: 2056 fa3e 3693 113f 99a0 b33e 3de0 253f
00000120: dc3f a6be e52f e63e 546d 6abe 1963 de3e
00000130: 7388 1e3f d3af 5d3f d71b f03e 2c3a 403e
00000140: d1f2 b4be 0f7a 043f bd73 5cbe fe1e f63e
00000150: 1222 1f3f ad4c 493f aff5 98be 5eb8 0bbf
00000160: e151 f03e 272e 2c3f 1e01 90be 5096 fcbe
00000170: 657d c9be ee9a bfbe b3e3 bd3e 8097 04bf
00000180: 1a0b 173f 284d 153f 92c5 123f 8457 143f
00000190: 880b fabe b597 45be e807 493e b04a d5be
000001a0: 1ec4 fe3e c3dd 9bbe d693 b7be cdfc 37bd
000001b0: 45b1 f43e cec8 3a3d 7ad0 9abe 02bd 5bbe
000001c0: 417e 05bf 028d 8c3f af3d 90bd c58b 5bbe
000001d0: 6ee8 86be 9fa6 89bd 8d4e 6bbe a3da a2bd
000001e0: 55ce 05bf 0a01 fcbd 8100 f43d 4c30 723d
000001f0: 8251 e9be 0997 813f ac3a c73d 19ac 21bf
00000200: 151a ea3e de7b 2fbf 3045 28bf d7d0 14bf
00000210: e4b0 14be 8cb7 9abe cc0f b33d 5478 7fbe
00000220: e212 8d3e 0bb1 c0be cca9 533f c0da fd3d
00000230: 3db0 903e 9ddb 6dbe b266 76be 2090 57bd
00000240: 54b1 9b3e c4cd a2be 935d 11be 83fc 2abe
00000250: c7f2 413f 3ab7 093e 3c00 913d c75e 9e3d
00000260: efc1 72be d22a 82be c998 603f 2726 e13e
00000270: fd72 2dbe ab03 283d 350e d43d 13e7 043e
00000280: af1c a6bd 67b8 d53e a74f 2c3f 6b1a 83bd
00000290: ff07 5dbe 121f e93e 001d b63c 48c7 6fbe
000002a0: ad53 18be 62ac e2bd 03a8 34be 2624 19be
000002b0: 0fb0 913e ab97 81bd b142 eebe 43ff cabd
000002c0: 417f 7cbe c61f 8ebd 17d0 b33e eaf3 36be
000002d0: bb16 d6bd 0b58 2e3f 2a3f a43e bff1 033f
000002e0: 3463 c83e 8f86 de3e aa9d c3bd d140 b43e
000002f0: 9e61 82be 1499 61be 3401 7fbe 64b0 5abe
00000300: 7a12 4fbe d731 a2be d25b d43e f54e 90be
00000310: cefb a5be d6bc 1ebe 0a6f eabd 173c 4dbe
00000320: fb66 48be 583c 6ebe 8814 45be 2d47 38be
00000330: 7dc7 02be 114d 1dbd 513b 73be c1d0 50be
00000340: 3975 3a3f 2a70 ab3e 2fea 993e 414f a2be
00000350: afca 823d 8ebc c1bd 2ddb 0fbe 0564 1a3e
00000360: 619a bf3e 7568 bebd 0f9c e13e 2fd2 b83e
00000370: 512c e33e 3cfb a8be d873 7b3e 507b be3e
00000380: 682b fc3e 6993 923e 820a f93e 274e 9cbe
00000390: df94 873c 608a b2be c4ba 7dbe 715b 40be
000003a0: bde1 c13e 0325 b0be f218 0cbd a7b9 0f3f
000003b0: 1f08 b53e 5c34 c83e 8636 243f 318c 6a3d
000003c0: 01b4 673d abd7 7b3e a294 8abe 5f23 afbe
000003d0: 84bc 1cbd 3ae0 fbbe f5d4 79be 1dc1 b8be
000003e0: b4c3 c23e 1143 803e 87df e8bd b220 bdbd
000003f0: b99a c6bd 562a b43e a227 a63e ba34 d93e
0.13641074 0.24322724 0.35922652 0.4035186 0.3952302 -0.2092389 0.411673 0.44936585
0.36947262 0.2599955 0.20261057 -0.303471 0.42808262 -0.37735415 0.3740986 -0.29091442
0.19566806 -0.20574574 0.22182263 0.3190078 0.085940726 0.57151 0.29835254 0.14036448
0.26543042 0.30005136 0.16990119 0.09702115 0.05070656 0.026278133 -0.22048265 -0.25074443
0.19863738 0.3405406 0.6307485 -0.16668403 0.10838237 0.31260586 0.30483395 0.45938426
-0.15173808 0.17968981 -0.18517303 0.5472102 0.037773095 0.75464493 -0.004834941 0.06264285
0.2131018 0.16630077 -0.23850122 0.14365855 0.38591284 0.2523263 -0.21129325 0.22116272
-0.4128105 0.23711619 0.07451048 0.5727034 -0.2754235 -0.47234038 -0.50285643 -0.48865595
0.45045623 0.67480224 0.060135577 0.56496215 0.48893833 0.5686525 0.35083464 0.64795285
-0.32470596 0.44958416 -0.22893268 0.4343498 0.61926955 0.8659641 0.4689624 0.18772191
-0.35341504 0.51748747 -0.21528526 0.4807052 0.6216136 0.7863262 -0.29874942 -0.54578197
0.4693747 0.6725792 -0.28125852 -0.4933343 -0.3935348 -0.3742289 0.37087783 -0.5179367
0.59001315 0.58320856 0.5733272 0.5794604 -0.48836923 -0.19296153 0.19631922 -0.41658545
0.49759 -0.30442628 -0.35854977 -0.044918824 0.47791496 0.04560166 -0.3023718 -0.2145882
-0.52145773 1.0980532 -0.07043015 -0.21440037 -0.26349205 -0.067212336 -0.22979183 -0.07951858
-0.5226796 -0.12304886 0.119141586 0.05912809 -0.45569998 1.0124217 0.09727988 -0.63153225
0.45723024 -0.6854838 -0.6573057 -0.58131164 -0.14520603 -0.3021816 0.087432474 -0.24948245
0.2755347 -0.37635073 0.82680964 0.12395239 0.2825946 -0.23228307 -0.24062613 -0.052627683
0.30408728 -0.31797612 -0.14195852 -0.16697888 0.75761074 0.13448802 0.07080123 0.07732921
-0.23706792 -0.25423294 0.8773313 0.4397442 -0.16938396 0.041019123 0.10354272 0.12978773
-0.0811094 0.4174225 0.6730904 -0.06401523 -0.21585082 0.45531517 0.022230625 -0.23415864
-0.1487567 -0.11068036 -0.17642216 -0.14955196 0.28454635 -0.063277565 -0.46535257 -0.099119686
-0.24657919 -0.06939654 0.35119697 -0.17866483 -0.10453554 0.6810309 0.3207944 0.5154075
0.39138186 0.43462035 -0.095515564 0.352057 -0.254651 -0.22031051 -0.24902803 -0.2135635
-0.20221892 -0.3167865 0.41476303 -0.2818524 -0.32418674 -0.15501723 -0.1144696 -0.20042454
-0.19570534 -0.23265207 -0.19246113 -0.17995901 -0.12771411 -0.038403574 -0.23753096 -0.20392133
0.7283512 0.33484012 0.3006148 -0.3170109 0.06386315 -0.09459792 -0.14048453 0.15077217
0.3742247 -0.09297267 0.44064376 0.36097857 0.44369748 -0.33004177 0.2455591 0.37203455
0.49251866 0.2862809 0.4864083 -0.30528376 0.01655048 -0.34871197 -0.24778277 -0.18784882
0.37867537 -0.34403238 -0.034203477 0.5614266 0.35357758 0.39102447 0.64145696 0.057262603
0.05656815 0.2459399 -0.27066523 -0.34206674 -0.03826572 -0.4919451 -0.24397643 -0.36084834
0.38039935 0.25051168 -0.113707595 -0.09234752 -0.0969748 0.3518855 0.32452112 0.4242304

l1.bias f4 [8]
00000000: ffe4 2d3f 3188 773f 4a7a 2f3f ccf2 4f3f
00000010: 0886 293f e06a 113f 8ff1 453f 6ad1 403f
0.67927545 0.96692187 0.68545973 0.81229854 0.6622014 0.56803703 0.77321714 0.7531954

l2.weight f4 [8, 8]
00000000: e1c1 673f 0549 c1be 8857 2cbf a548 55bf
00000010: dc7d 843e c32d 443f cb9e 0d3f 953b 543f
00000020: 3a3f 753e bdbc b83f 0759 673e fb7b ae3f
00000030: f76e 613f 6525 eabe 2b55 31bf 1aa1 763f
00000040: 5f15 813f fdbe 87be 84d4 883f 4049 9a3f
00000050: 7a7f 823f c8fa b43f 267a 473f 9a77 ec3d
00000060: 1163 003e fa89 72bd 80b9 90be edfc 2dbe
00000070: 888a 2e3e 0338 f63c 9d0f b3bd 7c32 32be
00000080: ceab ba3e c84f 993f e4a4 6cbf d5b0 973e
00000090: 43c9 a0bd b25c 17bf ba6a c13f fab0 a13c
000000a0: 9025 5e3f eefe 053f 159c 92bf 5aee 113f
000000b0: 7788 4c3f 0d4b b4be 521d bebe ec85 753f
000000c0: e019 05be f17d 7abd af26 423d 2d40 133e
000000d0: 267d bdbe ad25 cb3d e526 15be be56 963d
000000e0: a113 15be 46e9 aa3f 9ed1 d13f ca56 6dbf
000000f0: d326 8fbf 44e6 77be 0371 8b3f e394 00be
0.9053021 -0.37751022 -0.6732106 -0.8331397 0.25877273 0.76632327 0.55320424 0.82903415
0.239499 1.4432598 0.22592555 1.3631586 0.88059944 -0.45731655 -0.6927058 0.9633957
1.0084647 -0.265129 1.0689855 1.2053604 1.0195153 1.4139032 0.7792076 0.1154625
0.12537791 -0.059213616 -0.28266525 -0.16991015 0.17045033 0.030056005 -0.08743212 -0.17402071
0.36459202 1.1977472 -0.92439103 0.296271 -0.078508876 -0.59125817 1.5110695 0.01973771
0.86776066 0.52342117 -1.1453882 0.5700432 0.7989573 -0.3521351 -0.37131745 0.95907474
-0.12998152 -0.061155263 0.047400173 0.1437995 -0.37009543 0.099192955 -0.14565618 0.073407635
-0.14558269 1.3352439 1.6392095 -0.92710555 -1.1183723 -0.24208933 1.0893863 -0.12556796

l2.bias f4 [8]
00000000: c7f3 71bd eb28 6e3f 86a5 913e 70e3 42be
00000010: 52bd 713e 3e2b 4fbd c938 92bd 1731 143f
-0.059070375 0.93031186 0.28446597 -0.19032073 0.23607376 -0.05057835 -0.07139737 0.57887405

l3.weight f4 [7, 8]
00000000: 6bf2 89bf 0de7 da3e 73c7 e2bf 050f 10be
00000010: 6c4b a23e 39eb ccbd edba 5dbe b69d df3e
00000020: 9ce7 593c a416 19bf 0eab 15bf b004 9e3d
00000030: 99b6 093f 4b47 b3be 1700 4e3e 5979 be3e
00000040: 085b bfbf 361a a23e 58d6 bcbe a803 3abe
00000050: cdaa 3f3d 6032 e5bf 3b9f 81be ad0f 2e3f
00000060: a27a 12bf 9a81 6d3e 37c0 33bd 93b5 45be
00000070: fe82 e83e 6d1b a73e 4383 153d b7c2 a1bf
00000080: b3b4 5e3f d324 89bf 2468 773e 1a73 203e
00000090: 33d8 16be 0e23 98bf 386e d73c 940b 2ebf
000000a0: 0dca 783f b866 11bc edb2 65be b4e7 a4be
000000b0: 7bc9 d2bf dfea 153f e04f 963e 4586 90bf
000000c0: 66e8 aebf 3dc3 cd3d 3c50 473f 760f 0ebe
000000d0: 37e7 c9bf b649 7cbe c433 9e3d 23ad 88bf
-1.0777105 0.42754403 -1.7717117 -0.1406823 0.31698167 -0.10005803 -0.21653338 0.4367501
0.013299849 -0.5980017 -0.58464134 0.07715738 0.53794247 -0.3501533 0.20117222 0.37201956
-1.4949656 0.31660622 -0.3688228 -0.18165457 0.046793748 -1.7905998 -0.25316796 0.6799267
-0.5721837 0.2319397 -0.043884482 -0.19307546 0.4541244 0.32638112 0.036502134 -1.2637547
0.86994475 -1.0714363 0.2416082 0.15668908 -0.14730911 -1.1885698 0.026297674 -0.67986417
0.97183305 -0.008874588 -0.22431536 -0.32208025 -1.6467737 0.5856151 0.29357815 -1.1290976
-1.3664672 0.10047004 0.778568 -0.13873085 -1.5773686 -0.24637493 0.07724717 -1.0677837

l3.bias f4 [7]
00000000: ee15 a9be f148 e6be 63e0 283e 29ae 36be
00000010: de5e 463d 92e7 063e 809e 463e
-0.33024544 -0.44977525 0.16491847 -0.17839874 0.048430316 0.13174275 0.193964
